data.pth (torch, 6250 bytes, 6 tensors)

l1.weight f4 [8, 70]
-0.3846469 0.538331 -0.17134558 -0.4865506 -0.29483464 0.092968315 -0.18089254 -0.19058803
0.0028938614 0.5920533 -0.37381843 -0.29410863 0.7125974 -0.19082755 -0.10023735 -0.21672492
-0.42941862 -0.41390792 -0.13537909 0.84925133 0.4921084 0.3393921 -0.11444709 -0.083268985
0.21990171 0.47018206 0.16416542 0.43261015 0.50729686 0.58137095 0.36122394 -0.2537726
-0.011712849 0.598378 0.5627723 -0.2696331 0.4859999 0.6287357 -0.48838267 -0.035195168
0.5247955 -0.3807564 -0.22509845 0.3244034 0.57171917 0.46818197 -0.16661191 0.517323
0.29620776 0.90366876 0.5231405 0.5968712 -0.13215907 -0.002629915 0.2804894 -0.32567108
-0.0016622576 -0.018292725 -0.24620022 -0.21439476 -0.3237318 -0.16434066 -0.1741411 -0.092477985
0.13915777 -0.1900023 -0.34629393 -0.2643508 -0.31750408 0.019542374 0.32738927 -0.07350607
0.34597144 -0.18523511 -0.264581 0.3263507 0.33726624 0.25794783 -0.1053877 0.029513218
-0.21315183 0.40621662 0.64164567 0.24782135 0.40414128 0.057774607 0.3514919 0.39992532
-0.27928862 0.9915962 0.36229905 0.35608828 0.1776393 0.2544417 0.48113415 0.23067446
0.29708442 0.12243425 0.019367881 -0.22864744 0.59993327 0.2601305 0.074919134 0.46246588
0.36182287 0.020751026 0.75801533 0.43684706 0.40813395 0.45814624 0.28648853 0.39637518
0.23255853 0.2744727 0.67982864 0.6795711 0.25743285 0.26195106 0.34392387 0.03905898
0.17455532 -0.2204064 0.102975436 -0.01378041 0.25782472 0.025334015 -0.32441556 0.1314289
0.057539742 0.06547717 -0.19658048 0.11898654 0.15202282 -0.32781705 0.36401078 0.10132224
0.4764054 -0.31548265 0.2520241 -0.065173104 -0.46492893 -0.24036719 -0.18138178 0.24515969
0.56212 0.21423554 -0.32911885 -0.3335133 0.42776853 0.13769771 0.69967186 0.7285102
-0.08053723 0.3090357 0.623906 -0.22970285 -0.5105228 -0.5104518 0.63356066 -0.26011553
-0.16697702 0.66590935 -0.17672622 0.4476747 0.48225564 0.04427886 0.48238626 -0.22336815
0.101591565 0.124699004 0.038791195 0.26101118 -0.028409835 0.33983862 -0.0490195 -0.2581036
0.17736699 0.32457945 0.4416759 0.54247475 0.0931761 -0.4365856 0.5478201 -0.09796993
-0.2945802 -0.16990519 0.48058885 0.272784 0.328237 0.2840194 0.39862335 -0.046244208
0.09894837 0.41335487 -0.18532822 -0.43123984 0.5809104 -0.20968263 -0.21330449 -0.24069996
-0.5438888 -0.25762358 -0.17289437 0.62619776 0.16241589 -0.13492373 -0.5104722 0.46263984
-0.51054347 -0.20573355 -0.355098 -0.10331081 -0.2194013 0.40678433 0.5348068 0.029552039
-0.13590376 -0.18286324 -0.40885308 -0.0018698126 0.4074039 0.24505715 -0.12152244 0.17381638
0.24745575 -0.34413353 -0.34987682 -0.3550853 0.57744735 0.29893547 0.035594694 0.14918214
-0.15378653 0.0079206275 -0.0020426572 0.33077815 0.12992516 -0.009843007 -0.09530679 0.20486403
0.27058312 0.3109571 -0.13585404 0.43349022 0.05140864 -0.3708893 0.7909958 0.6541613
0.31653726 0.4021629 -0.31831202 -0.35517994 -0.16396761 -0.17231297 -0.7398813 -0.53259814
00000000: 70f0 c4be 0fd0 093f 3775 2fbe 291d f9be
00000010: 91f4 96be 2c66 be3d e53b 39be 8229 43be
00000020: f0a6 3d3b ce90 173f 2165 bfbe 6895 96be
00000030: c96c 363f 4c68 43be 3d49 cdbd 23ed 5dbe
00000040: c2dc dbbe bdeb d3be d1a0 0abe 8968 593f
00000050: a2f5 fb3e cdc4 ad3e 3c63 eabd ee88 aabd
00000060: ea2d 613e b4bb f03e fb1a 283e 147f dd3e
00000070: 35de 013f bad4 143f 58f2 b83e 7bee 81be
00000080: 40e7 3fbc 4d2f 193f d811 103f 5a0d 8abe
00000090: fbd4 f83e d3f4 203f 4b0d fabe cf28 10bd
000000a0: ff58 063f 81f2 c2be 3580 66be 3418 a63e
000000b0: 305c 123f 8cb5 ef3e 509c 2abe 486f 043f
000000c0: 8ba8 973e d656 673f 89ec 053f 8dcc 183f
000000d0: b554 07be a75a 2cbb 4e9c 8f3e 5cbe a6be
000000e0: 1ce0 d9ba a0da 95bc e91b 7cbe 4d8a 5bbe
000000f0: 2dc0 a5be eb48 28be 0b52 32be 1965 bdbd
00000100: 607f 0e3e f78f 42be 704d b1be fd58 87be
00000110: e58f a2be 5417 a03c 919f a73e 5a8a 96bd
00000120: 2b23 b13e 46ae 3dbe 2977 87be 7017 a73e
00000130: 29ae ac3e bd11 843e 82d5 d7bd b4c5 f13c
00000140: 7944 5abe a0fb cf3e e442 243f e1c4 7d3e
00000150: 9beb ce3e 11a5 6c3d bff6 b33e 03c3 cc3e
00000160: ebfe 8ebe 40d9 7d3f 437f b93e 3451 b63e
00000170: 14e7 353e 2f46 823e 3757 f63e ed35 6c3e
00000180: 731b 983e cfbe fa3d 64a9 9e3c 8e22 6abe
00000190: 3a95 193f d32f 853e 346f 993d 54c8 ec3e
000001a0: d940 b93e 0efe a93c 4b0d 423f 6baa df3e
000001b0: eff6 d03e 2592 ea3e a0ae 923e b0f1 ca3e
000001c0: d323 6e3e b087 8c3e 4009 2e3f 5ff8 2d3f
000001d0: 3dce 833e 731e 863e ca16 b03e 4ffc 1f3d
000001e0: a1be 323e 37b2 61be c9e4 d23d 3bc7 61bc
000001f0: 9a01 843e 4889 cf3c cc19 a6be 4c95 063e
00000200: cbae 6b3d e518 863d 654c 49be 37af f33d
00000210: dfab 1b3e a3d7 a7be 9f5f ba3e 0982 cf3d
00000220: 69eb f33e f186 a1be 4e09 813e 7a79 85bd
00000230: 2a0b eebe d122 76be 25bc 39be 240b 7b3e
00000240: 19e7 0f3f 9060 5b3e 4482 a8be 41c2 aabe
00000250: 7a04 db3e a100 0d3e b21d 333f a57f 3a3f
00000260: b4f0 a4bd ed39 9e3e 4eb8 1f3f 3937 6bbe
00000270: 9fb1 02bf f8ac 02bf 0831 223f dd2d 85be
00000280: 06fc 2abe 0979 2a3f b8f7 34be 9e35 e53e
00000290: 36ea f63e c05d 353d 55fb f63e 9fba 64be
000002a0: 3d0f d03d 3162 ff3d 84e3 1e3d 42a3 853e
000002b0: bebb e8bc 54ff ad3e acc8 48bd 2826 84be
000002c0: b19f 353e 472f a63e 5823 e23e a0df 0a3f
000002d0: 1cd3 be3d 2688 dfbe f03d 0c3f 75a4 c8bd
000002e0: 37d3 96be a0fb 2dbe be0f f63e 58aa 8b3e
000002f0: ae0e a83e fe6a 913e 5c18 cc3e 916a 3dbd
00000300: 71a5 ca3d 40a3 d33e aec6 3dbe 78cb dcbe
00000310: 8bb6 143f 0bb7 56be 7e6c 5abe 0d7a 76be
00000320: 4c3c 0bbf 3de7 83be 390b 31be 7f4e 203f
00000330: 5a50 263e 7229 0abe 4eae 02bf 21df ec3e
00000340: fab2 02bf d1ab 52be 68cf b5be 9e94 d3bd
00000350: bcaa 60be 0946 d03e 19e9 083f 1e17 f23c
00000360: 5b2a 0bbe 8040 3bbe 3155 d1be 8014 f5ba
00000370: 3e97 d03e 43f0 7a3e c2e0 f8bd ecfc 313e
00000380: 0a65 7d3e 4532 b0be 0e23 b3be becd b5be
00000390: 97d3 133f 120e 993e becb 113d 34c3 183e
000003a0: 377a 1dbe 85c5 013c 1ade 05bb c15b a93e
000003b0: 1a0b 053e 9044 21bc 3530 c3bd e0c7 513e
000003c0: df89 8a3e c535 9f3e 521d 0bbe 6ef2 dd3e
000003d0: de91 523d 34e5 bdbe b37e 4a3f 1d77 273f
000003e0: 2c11 a23e 4ce8 cd3e cbf9 a2be 25da b5be
000003f0: 20e7 27be d072 30be dc68 3dbf 5a58 08bf

l1.bias f4 [8]
0.42943996 0.89857286 0.5105019 0.3551655 0.34564608 0.86315984 0.29586378 0.40812957
00000000: 8edf db3e df08 663f 41b0 023f 41d8 b53e
00000010: 86f8 b03e 0bf8 5c3f 757b 973e 5cf6 d03e

l2.weight f4 [8, 8]
-0.6151602 0.92098755 0.804385 -0.7767491 -0.49175063 0.32009912 1.483324 1.0485239
1.2297416 0.57182115 -0.14954938 -0.26744536 0.9043207 -0.93150735 0.3522366 0.8683685
0.69356656 1.2754264 -0.6535613 0.23811245 -0.6962879 0.47296005 -0.30484888 -0.53614664
0.23703945 1.0307156 -0.6071657 -0.5059345 -0.68053734 0.70655614 -0.15353422 0.18230368
-0.12930797 0.7805374 -1.0243113 -1.1807989 -0.9118237 0.5736316 0.20872739 0.7341862
0.13785973 0.51844734 0.14169432 0.91523546 0.92606246 1.1588199 -1.1129643 -0.9969158
1.0154477 0.6672498 1.1082674 0.87617075 1.2819268 -0.68387246 0.27043265 0.058499686
-0.86320484 0.44595307 0.90157187 1.3990246 -0.17291687 1.2213509 -0.32616878 -0.427417
00000000: 247b 1dbf d7c5 6b3f 2dec 4d3f 07d9 46bf
00000010: bdc6 fbbe 08e4 a33e 90dd bd3f 0836 863f
00000020: 2c68 9d3f df62 123f 7923 19be 99ee 88be
00000030: 9081 673f 4477 6ebf 5b58 b43e 664d 5e3f
00000040: 948d 313f 2c41 a33f cb4f 27bf c0d3 733e
00000050: ec3f 32bf d227 f23e 2715 9cbe e840 09bf
00000060: 78ba 723e 7dee 833f 366f 1bbf ec84 01bf
00000070: b237 2ebf dde0 343f 1338 1dbe d1ad 3a3e
00000080: 4f69 04be 4dd1 473f a21c 83bf 6b24 97bf
00000090: 476d 69bf 85d9 123f a2bc 553e a0f3 3b3f
000000a0: 1a2b 0d3e f7b8 043f 5118 113e df4c 6a3f
000000b0: 6e12 6d3f 3654 943f 9d75 8ebf e035 7fbf
000000c0: 31fa 813f e2d0 2a3f b5db 8d3f ba4c 603f
000000d0: 2d16 a43f 4412 2fbf 2676 8a3e 5e9d 6f3d
000000e0: fefa 5cbf f653 e43e 6acd 663f 3d13 b33f
000000f0: 1f11 31be 3a55 9c3f 98ff a6be 67d6 dabe

l2.bias f4 [8]
0.31642985 0.43456575 0.09497241 0.5984254 0.6711968 0.42998642 0.11393547 0.6905065
00000000: 1803 a23e 677f de3e e580 c23d 6832 193f
00000010: 8ed3 2b3f 2e27 dc3e 0057 e93d 09c5 303f

l3.weight f4 [8, 8]
-0.41762313 -1.1512629 -1.2453568 -0.76772124 -0.8146306 0.88579 -0.055256896 0.8365485
-1.4780023 0.5918634 -0.41759688 -1.2510519 -0.56229234 0.10233329 0.7401502 -0.7694077
-0.94127154 -0.36803547 0.6880195 -0.18435621 -1.0705665 0.48437884 0.18031092 -0.015652185
0.8196067 -0.8210846 -0.58375365 -0.44363764 -0.7097324 -0.88958114 0.26531208 0.50950944
0.029655265 -1.1660548 0.50922644 0.8078939 0.6526593 0.4539275 -1.3710421 0.37561414
-0.50708187 0.51282007 0.61138636 0.55631167 0.37665194 -0.6708406 -0.21185054 -1.0100048
0.47424176 0.30169258 -1.1567755 -0.64394736 -0.80659264 -1.460681 0.55055475 -1.0990366
0.7290706 0.043626245 -1.3968928 0.2845216 0.8702782 -0.73902416 -0.79841554 -0.62289256
00000000: b3d2 d5be 955c 93bf da67 9fbf 6189 44bf
00000010: a28b 50bf 22c3 623f 0e55 62bd 0b28 563f
00000020: 2e2f bdbf 5c84 173f 42cf d5be 7822 a0bf
00000030: 64f2 0fbf 1e94 d13d 7c7a 3d3f e7f7 44bf
00000040: 2cf7 70bf 256f bcbe 0c22 303f e0c7 3cbe
00000050: 5308 89bf 8100 f83e 6da3 383e 0339 80bc
00000060: bfd1 513f 9a32 52bf e170 15bf 7924 e3be
00000070: 06b1 35bf 97bb 63bf fcd6 873e 366f 023f
00000080: 99ef f23c 4941 95bf aa5c 023f 22d2 4e3f
00000090: ae14 273f 2f69 e83e 4f7e afbf 7f50 c03e
000000a0: 1ed0 01bf 2d48 033f d183 1c3f 716a 0e3f
000000b0: 86d8 c03e 36bc 2bbf 59ef 58be d647 81bf
000000c0: d1cf f23e 7377 9a3e 3811 94bf bcd9 24bf
000000d0: db7c 4ebf 98f7 babf 28f1 0c3f 3bad 8cbf
000000e0: 5fa4 3a3f 6fb1 323d 62cd b2bf d1ac 913e
000000f0: 8dca 5e3f b030 3dbf f664 4cbf e375 1fbf

l3.bias f4 [8]
0.28968722 0.34576985 -0.032643583 -0.1706226 0.24554873 -0.02002514 0.22304374 0.18454604
00000000: e251 943e bf08 b13e 47b5 05bd b1b7 2ebe
00000010: 2071 7b3e c30b a4bc 9465 643e a3f9 3c3e
